…
   Com Parâmetros (patience é fixa em 25): {'batch_size': 16, 'epochs': 300, 'model__dropout_rate1': 0.1, 'model__dropout_rate2': 0.1, 'model__dropout_rate3': 0.1, 'model__kernel_regularizer_strength': 0.01, 'model__kernel_regularizer_type': 'l2', 'model__learning_rate': 0.001, 'model__optimizer_name': 'adam'}
Model: "MLP_Classifier_Opt-adam_LR-1e-03_Reg-l2_Drop-0.1-0.1-0.1"
┏━━━━━━━━━━━━━━━━━━━━━━━━━━━━━━━━━┳━━━━━━━━━━━━━━━━━━━━━━━━┳━━━━━━━━━━━━━━━┓
┃ Layer (type)                    ┃ Output Shape           ┃       Param # ┃
┡━━━━━━━━━━━━━━━━━━━━━━━━━━━━━━━━━╇━━━━━━━━━━━━━━━━━━━━━━━━╇━━━━━━━━━━━━━━━┩
│ Hidden_Layer_1_Dense (Dense)    │ (None, 10)             │           190 │
├─────────────────────────────────┼────────────────────────┼───────────────┤
│ Hidden_Layer_1_BN               │ (None, 10)             │            40 │
│ (BatchNormalization)            │                        │               │
├─────────────────────────────────┼────────────────────────┼───────────────┤
│ Hidden_Layer_1_Sigmoid          │ (None, 10)             │             0 │
│ (Activation)                    │                        │               │
├─────────────────────────────────┼────────────────────────┼───────────────┤
│ Hidden_Layer_1_Dropout          │ (None, 10)             │             0 │
│ (Dropout)                       │                        │               │
├─────────────────────────────────┼────────────────────────┼───────────────┤
│ Hidden_Layer_2_Dense (Dense)    │ (None, 10)             │           100 │
├─────────────────────────────────┼────────────────────────┼───────────────┤
│ Hidden_Layer_2_BN               │ (None, 10)             │            40 │
│ (BatchNormalization)            │                        │               │
├─────────────────────────────────┼────────────────────────┼───────────────┤
│ Hidden_Layer_2_Sigmoid          │ (None, 10)             │             0 │
│ (Activation)                    │                        │               │
├─────────────────────────────────┼────────────────────────┼───────────────┤
│ Hidden_Layer_2_Dropout          │ (None, 10)             │             0 │
│ (Dropout)                       │                        │               │
├─────────────────────────────────┼────────────────────────┼───────────────┤
│ Hidden_Layer_3_Dense (Dense)    │ (None, 10)             │           100 │
├─────────────────────────────────┼────────────────────────┼───────────────┤
│ Hidden_Layer_3_BN               │ (None, 10)             │            40 │
│ (BatchNormalization)            │                        │               │
├─────────────────────────────────┼────────────────────────┼───────────────┤
│ Hidden_Layer_3_Sigmoid          │ (None, 10)             │             0 │
│ (Activation)                    │                        │               │
├─────────────────────────────────┼────────────────────────┼───────────────┤
│ Hidden_Layer_3_Dropout          │ (None, 10)             │             0 │
│ (Dropout)                       │                        │               │
├─────────────────────────────────┼────────────────────────┼───────────────┤
│ Output_Layer (Dense)            │ (None, 3)              │            33 │
└─────────────────────────────────┴────────────────────────┴───────────────┘
 Total params: 543 (2.12 KB)
 Trainable params: 483 (1.89 KB)
 Non-trainable params: 60 (240.00 B)

Epoch 1/300
40ms/step - accuracy: 0.3269 - loss: 1.6087 - val_accuracy: 0.3111 - val_loss: 1.5922
19ms/step - accuracy: 0.8230 - loss: 0.3947 - val_accuracy: 0.9778 - val_loss: 0.2030
Restoring model weights from the end of the best epoch: 300.
…
   Com Parâmetros (patience é fixa em 25): {'batch_size': 16, 'epochs': 250, 'model__dropout_rate1': 0.1, 'model__dropout_rate2': 0.1, 'model__dropout_rate3': 0.1, 'model__kernel_regularizer_type': None, 'model__learning_rate': 0.001, 'model__optimizer_name': 'adam'}
Model: "MLP_Classifier_Opt-adam_LR-1e-03_Reg-None_Drop-0.1-0.1-0.1"
┏━━━━━━━━━━━━━━━━━━━━━━━━━━━━━━━━━┳━━━━━━━━━━━━━━━━━━━━━━━━┳━━━━━━━━━━━━━━━┓
┃ Layer (type)                    ┃ Output Shape           ┃       Param # ┃
┡━━━━━━━━━━━━━━━━━━━━━━━━━━━━━━━━━╇━━━━━━━━━━━━━━━━━━━━━━━━╇━━━━━━━━━━━━━━━┩
│ Hidden_Layer_1_Dense (Dense)    │ (None, 10)             │           240 │
├─────────────────────────────────┼────────────────────────┼───────────────┤
│ Hidden_Layer_1_BN               │ (None, 10)             │            40 │
│ (BatchNormalization)            │                        │               │
├─────────────────────────────────┼────────────────────────┼───────────────┤
│ Hidden_Layer_1_Sigmoid          │ (None, 10)             │             0 │
│ (Activation)                    │                        │               │
├─────────────────────────────────┼────────────────────────┼───────────────┤
│ Hidden_Layer_1_Dropout          │ (None, 10)             │             0 │
│ (Dropout)                       │                        │               │
├─────────────────────────────────┼────────────────────────┼───────────────┤
│ Hidden_Layer_2_Dense (Dense)    │ (None, 10)             │           100 │
├─────────────────────────────────┼────────────────────────┼───────────────┤
│ Hidden_Layer_2_BN               │ (None, 10)             │            40 │
│ (BatchNormalization)            │                        │               │
├─────────────────────────────────┼────────────────────────┼───────────────┤
│ Hidden_Layer_2_Sigmoid          │ (None, 10)             │             0 │
│ (Activation)                    │                        │               │
├─────────────────────────────────┼────────────────────────┼───────────────┤
│ Hidden_Layer_2_Dropout          │ (None, 10)             │             0 │
│ (Dropout)                       │                        │               │
├─────────────────────────────────┼────────────────────────┼───────────────┤
│ Hidden_Layer_3_Dense (Dense)    │ (None, 10)             │           100 │
├─────────────────────────────────┼────────────────────────┼───────────────┤
│ Hidden_Layer_3_BN               │ (None, 10)             │            40 │
│ (BatchNormalization)            │                        │               │
├─────────────────────────────────┼────────────────────────┼───────────────┤
│ Hidden_Layer_3_Sigmoid          │ (None, 10)             │             0 │
│ (Activation)                    │                        │               │
├─────────────────────────────────┼────────────────────────┼───────────────┤
│ Hidden_Layer_3_Dropout          │ (None, 10)             │             0 │
│ (Dropout)                       │                        │               │
├─────────────────────────────────┼────────────────────────┼───────────────┤
│ Output_Layer (Dense)            │ (None, 3)              │            33 │
└─────────────────────────────────┴────────────────────────┴───────────────┘
 Total params: 593 (2.32 KB)
 Trainable params: 533 (2.08 KB)
 Non-trainable params: 60 (240.00 B)

Epoch 1/250
38ms/step - accuracy: 0.2809 - loss: 1.1803 - val_accuracy: 0.3333 - val_loss: 1.1103
20ms/step - accuracy: 0.9062 - loss: 0.2614 - val_accuracy: 0.9333 - val_loss: 0.2556
Treinamento finalizado em 77.23 segundos.
…
   Com Parâmetros (patience é fixa em 25): {'batch_size': 32, 'epochs': 250, 'model__dropout_rate1': 0.1, 'model__dropout_rate2': 0.1, 'model__dropout_rate3': 0.1, 'model__kernel_regularizer_type': None, 'model__learning_rate': 0.001, 'model__optimizer_name': 'adam'}
Model: "MLP_Classifier_Opt-adam_LR-1e-03_Reg-None_Drop-0.1-0.1-0.1"
┏━━━━━━━━━━━━━━━━━━━━━━━━━━━━━━━━━┳━━━━━━━━━━━━━━━━━━━━━━━━┳━━━━━━━━━━━━━━━┓
┃ Layer (type)                    ┃ Output Shape           ┃       Param # ┃
┡━━━━━━━━━━━━━━━━━━━━━━━━━━━━━━━━━╇━━━━━━━━━━━━━━━━━━━━━━━━╇━━━━━━━━━━━━━━━┩
│ Hidden_Layer_1_Dense (Dense)    │ (None, 10)             │           450 │
├─────────────────────────────────┼────────────────────────┼───────────────┤
│ Hidden_Layer_1_BN               │ (None, 10)             │            40 │
│ (BatchNormalization)            │                        │               │
├─────────────────────────────────┼────────────────────────┼───────────────┤
│ Hidden_Layer_1_Sigmoid          │ (None, 10)             │             0 │
│ (Activation)                    │                        │               │
├─────────────────────────────────┼────────────────────────┼───────────────┤
│ Hidden_Layer_1_Dropout          │ (None, 10)             │             0 │
│ (Dropout)                       │                        │               │
├─────────────────────────────────┼────────────────────────┼───────────────┤
│ Hidden_Layer_2_Dense (Dense)    │ (None, 10)             │           100 │
├─────────────────────────────────┼────────────────────────┼───────────────┤
│ Hidden_Layer_2_BN               │ (None, 10)             │            40 │
│ (BatchNormalization)            │                        │               │
├─────────────────────────────────┼────────────────────────┼───────────────┤
│ Hidden_Layer_2_Sigmoid          │ (None, 10)             │             0 │
│ (Activation)                    │                        │               │
├─────────────────────────────────┼────────────────────────┼───────────────┤
│ Hidden_Layer_2_Dropout          │ (None, 10)             │             0 │
│ (Dropout)                       │                        │               │
├─────────────────────────────────┼────────────────────────┼───────────────┤
│ Hidden_Layer_3_Dense (Dense)    │ (None, 10)             │           100 │
├─────────────────────────────────┼────────────────────────┼───────────────┤
│ Hidden_Layer_3_BN               │ (None, 10)             │            40 │
│ (BatchNormalization)            │                        │               │
├─────────────────────────────────┼────────────────────────┼───────────────┤
│ Hidden_Layer_3_Sigmoid          │ (None, 10)             │             0 │
│ (Activation)                    │                        │               │
├─────────────────────────────────┼────────────────────────┼───────────────┤
│ Hidden_Layer_3_Dropout          │ (None, 10)             │             0 │
│ (Dropout)                       │                        │               │
├─────────────────────────────────┼────────────────────────┼───────────────┤
│ Output_Layer (Dense)            │ (None, 3)              │            33 │
└─────────────────────────────────┴────────────────────────┴───────────────┘
 Total params: 803 (3.14 KB)
 Trainable params: 743 (2.90 KB)
 Non-trainable params: 60 (240.00 B)

Epoch 1/250
90ms/step - accuracy: 0.3577 - loss: 1.2797 - val_accuracy: 0.3333 - val_loss: 1.1793
29ms/step - accuracy: 0.9307 - loss: 0.2333 - val_accuracy: 0.8667 - val_loss: 0.3778
Treinamento finalizado em 49.74 segundos.
…
