…
   Com Parâmetros (patience é fixa em 25): {'batch_size': 8, 'epochs': 200, 'model__dropout_rate1': 0.1, 'model__dropout_rate2': 0.1, 'model__dropout_rate3': 0.1, 'model__kernel_regularizer_strength': 0.001, 'model__kernel_regularizer_type': 'l2', 'model__learning_rate': 0.005, 'model__optimizer_name': 'adam'}
Model: "MLP_Classifier_Opt-adam_LR-5e-03_Reg-l2_Drop-0.1-0.1-0.1"
┏━━━━━━━━━━━━━━━━━━━━━━━━━━━━━━━━━┳━━━━━━━━━━━━━━━━━━━━━━━━┳━━━━━━━━━━━━━━━┓
┃ Layer (type)                    ┃ Output Shape           ┃       Param # ┃
┡━━━━━━━━━━━━━━━━━━━━━━━━━━━━━━━━━╇━━━━━━━━━━━━━━━━━━━━━━━━╇━━━━━━━━━━━━━━━┩
│ Hidden_Layer_1_Dense (Dense)    │ (None, 10)             │           190 │
├─────────────────────────────────┼────────────────────────┼───────────────┤
│ Hidden_Layer_1_BN               │ (None, 10)             │            40 │
│ (BatchNormalization)            │                        │               │
├─────────────────────────────────┼────────────────────────┼───────────────┤
│ Hidden_Layer_1_Sigmoid          │ (None, 10)             │             0 │
│ (Activation)                    │                        │               │
├─────────────────────────────────┼────────────────────────┼───────────────┤
│ Hidden_Layer_1_Dropout          │ (None, 10)             │             0 │
│ (Dropout)                       │                        │               │
├─────────────────────────────────┼────────────────────────┼───────────────┤
│ Hidden_Layer_2_Dense (Dense)    │ (None, 10)             │           100 │
├─────────────────────────────────┼────────────────────────┼───────────────┤
│ Hidden_Layer_2_BN               │ (None, 10)             │            40 │
│ (BatchNormalization)            │                        │               │
├─────────────────────────────────┼────────────────────────┼───────────────┤
│ Hidden_Layer_2_Sigmoid          │ (None, 10)             │             0 │
│ (Activation)                    │                        │               │
├─────────────────────────────────┼────────────────────────┼───────────────┤
│ Hidden_Layer_2_Dropout          │ (None, 10)             │             0 │
│ (Dropout)                       │                        │               │
├─────────────────────────────────┼────────────────────────┼───────────────┤
│ Hidden_Layer_3_Dense (Dense)    │ (None, 10)             │           100 │
├─────────────────────────────────┼────────────────────────┼───────────────┤
│ Hidden_Layer_3_BN               │ (None, 10)             │            40 │
│ (BatchNormalization)            │                        │               │
├─────────────────────────────────┼────────────────────────┼───────────────┤
│ Hidden_Layer_3_Sigmoid          │ (None, 10)             │             0 │
│ (Activation)                    │                        │               │
├─────────────────────────────────┼────────────────────────┼───────────────┤
│ Hidden_Layer_3_Dropout          │ (None, 10)             │             0 │
│ (Dropout)                       │                        │               │
├─────────────────────────────────┼────────────────────────┼───────────────┤
│ Output_Layer (Dense)            │ (None, 3)              │            33 │
└─────────────────────────────────┴────────────────────────┴───────────────┘
 Total params: 543 (2.12 KB)
 Trainable params: 483 (1.89 KB)
 Non-trainable params: 60 (240.00 B)

Epoch 1/200
[1m 1/27[0m [37m━━━━━━━━━━━━━━━━━━━━[0m [1m38s[0m 1s/step - accuracy: 0.3750 - loss: 0.8469[1m 4/27[0m [32m━━[0m[37m━━━━━━━
…
   Com Parâmetros (patience é fixa em 25): {'batch_size': 8, 'epochs': 150, 'model__dropout_rate1': 0.1, 'model__dropout_rate2': 0.1, 'model__dropout_rate3': 0.1, 'model__kernel_regularizer_strength': 0.001, 'model__kernel_regularizer_type': 'l2', 'model__learning_rate': 0.005, 'model__optimizer_name': 'adam'}
Model: "MLP_Classifier_Opt-adam_LR-5e-03_Reg-l2_Drop-0.1-0.1-0.1"
┏━━━━━━━━━━━━━━━━━━━━━━━━━━━━━━━━━┳━━━━━━━━━━━━━━━━━━━━━━━━┳━━━━━━━━━━━━━━━┓
┃ Layer (type)                    ┃ Output Shape           ┃       Param # ┃
┡━━━━━━━━━━━━━━━━━━━━━━━━━━━━━━━━━╇━━━━━━━━━━━━━━━━━━━━━━━━╇━━━━━━━━━━━━━━━┩
│ Hidden_Layer_1_Dense (Dense)    │ (None, 10)             │           240 │
├─────────────────────────────────┼────────────────────────┼───────────────┤
│ Hidden_Layer_1_BN               │ (None, 10)             │            40 │
│ (BatchNormalization)            │                        │               │
├─────────────────────────────────┼────────────────────────┼───────────────┤
│ Hidden_Layer_1_Sigmoid          │ (None, 10)             │             0 │
│ (Activation)                    │                        │               │
├─────────────────────────────────┼────────────────────────┼───────────────┤
│ Hidden_Layer_1_Dropout          │ (None, 10)             │             0 │
│ (Dropout)                       │                        │               │
├─────────────────────────────────┼────────────────────────┼───────────────┤
│ Hidden_Layer_2_Dense (Dense)    │ (None, 10)             │           100 │
├─────────────────────────────────┼────────────────────────┼───────────────┤
│ Hidden_Layer_2_BN               │ (None, 10)             │            40 │
│ (BatchNormalization)            │                        │               │
├─────────────────────────────────┼────────────────────────┼───────────────┤
│ Hidden_Layer_2_Sigmoid          │ (None, 10)             │             0 │
│ (Activation)                    │                        │               │
├─────────────────────────────────┼────────────────────────┼───────────────┤
│ Hidden_Layer_2_Dropout          │ (None, 10)             │             0 │
│ (Dropout)                       │                        │               │
├─────────────────────────────────┼────────────────────────┼───────────────┤
│ Hidden_Layer_3_Dense (Dense)    │ (None, 10)             │           100 │
├─────────────────────────────────┼────────────────────────┼───────────────┤
│ Hidden_Layer_3_BN               │ (None, 10)             │            40 │
│ (BatchNormalization)            │                        │               │
├─────────────────────────────────┼────────────────────────┼───────────────┤
│ Hidden_Layer_3_Sigmoid          │ (None, 10)             │             0 │
│ (Activation)                    │                        │               │
├─────────────────────────────────┼────────────────────────┼───────────────┤
│ Hidden_Layer_3_Dropout          │ (None, 10)             │             0 │
│ (Dropout)                       │                        │               │
├─────────────────────────────────┼────────────────────────┼───────────────┤
│ Output_Layer (Dense)            │ (None, 3)              │            33 │
└─────────────────────────────────┴────────────────────────┴───────────────┘
 Total params: 593 (2.32 KB)
 Trainable params: 533 (2.08 KB)
 Non-trainable params: 60 (240.00 B)

Epoch 1/150
[1m 1/27[0m [37m━━━━━━━━━━━━━━━━━━━━[0m [1m42s[0m 2s/step - accuracy: 0.0000e+00 - loss: 1.5919[1m 5/27[0m [32m━━━[0m[3
…
